…
X_train_cnn_MIT,y_train_MIT, batch_size = 16, epochs = 1000, validation_split=0.1, callbacks = callbacks_list, verbose = 1)"],"execution_count":null,"outputs":[{"output_type":"stream","text":["Model: \"functional_3\"\n","_________________________________________________________________\n","Layer (type)                 Output Shape              Param #   \n","=================================================================\n","input_2 (InputLayer)         [(None, 3600, 1)]         0         \n","_________________________________________________________________\n","conv1d_7 (Conv1D)            (None, 3596, 16)          96        \n","_________________________________________________________________\n","max_pooling1d_1 (MaxPooling1 (None, 1798, 16)          0         \n","_________________________________________________________________\n","batch_normalization_7 (Batch (None, 1798, 16)          64        \n","_________________________________________________________________\n","activation_6 (Activation)    (None, 1798, 16)          0         \n","_________________________________________________________________\n","conv1d_8 (Conv1D)            (None, 1796, 32)          1568      \n","_________________________________________________________________\n","batch_normalization_8 (Batch (None, 1796, 32)          128       \n","_________________________________________________________________\n","activation_7 (Activation)    (None, 1796, 32)          0         \n","_________________________________________________________________\n","dropout_3 (Dropout)          (None, 1796, 32)          0         \n","_________________________________________________________________\n","conv1d_9 (Conv1D)            (None, 1794, 32)          3104      \n","_________________________________________________________________\n","batch_normalization_9 (Batch (None, 1794, 32)          128       \n","_________________________________________________________________\n","activation_8 (Activation)    (None, 1794, 32)          0         \n","_________________________________________________________________\n","conv1d_10 (Conv1D)           (None, 1792, 32)          3104      \n","_________________________________________________________________\n","batch_normalization_10 (Batc (None, 1792, 32)          128       \n","_________________________________________________________________\n","activation_9 (Activation)    (None, 1792, 32)          0         \n","_________________________________________________________________\n","dropout_4 (Dropout)          (None, 1792, 32)          0         \n","_________________________________________________________________\n","conv1d_11 (Conv1D)           (None, 1790, 32)          3104      \n","_________________________________________________________________\n","batch_normalization_11 (Batc (None, 1790, 32)          128       \n","_________________________________________________________________\n","activation_10 (Activation)   (None, 1790, 32)          0         \n","_________________________________________________________________\n","conv1d_12 (Conv1D)           (None, 1788, 32)          3104      \n","_________________________________________________________________\n","batch_normalization_12 (Batc (None, 1788, 32)          128       \n","_________________________________________________________________\n","activation_11 (Activation)   (None, 1788, 32)          0         \n","_________________________________________________________________\n","dropout_5 (Dropout)          (None, 1788, 32)          0         \n","_________________________________________________________________\n","conv1d_13 (Conv1D)           (None, 1786, 32)          3104      \n","_________________________________________________________________\n","flatten_1 (Flatten)          (None, 57152)             0         \n","_________________________________________________________________\n","batch_normalization_13 (Batc (None, 57152)             228608    \n","_________________________________________________________________\n","dense_1 (Dense)              (None, 5)                 285765    \n","_________________________________________________________________\n","dense_2 (Dense)              (None, 5)                 30        \n","_________________________________________________________________\n","dense_3_mitbih (Dense)       (None, 5)                 30        \n","=================================================================\n","Total params: 532,321\n","Trainable params: 417,665\n","Non-trainable params: 114,656\n","_________________________________________________________________\n","Epoch 1/1000\n","5670/5670 [==============================] - ETA: 0s - loss: 0.2549 - acc: 0.9274\n","Epoch 00001: val_loss improved from inf to 0.24641, sa
…
_train_cnn_PTB, y_train_PTB, batch_size = 16, epochs = 1000, validation_split=0.1, callbacks = callbacks_list, verbose = 1)"],"execution_count":null,"outputs":[{"output_type":"stream","text":["Model: \"functional_1\"\n","_________________________________________________________________\n","Layer (type)                 Output Shape              Param #   \n","=================================================================\n","input_1 (InputLayer)         [(None, 10000, 1)]        0         \n","_________________________________________________________________\n","conv1d (Conv1D)              (None, 9996, 16)          96        \n","_________________________________________________________________\n","max_pooling1d (MaxPooling1D) (None, 4998, 16)          0         \n","_________________________________________________________________\n","batch_normalization (BatchNo (None, 4998, 16)          64        \n","_________________________________________________________________\n","activation (Activation)      (None, 4998, 16)          0         \n","_________________________________________________________________\n","conv1d_1 (Conv1D)            (None, 4996, 32)          1568      \n","_________________________________________________________________\n","batch_normalization_1 (Batch (None, 4996, 32)          128       \n","_________________________________________________________________\n","activation_1 (Activation)    (None, 4996, 32)          0         \n","_________________________________________________________________\n","dropout (Dropout)            (None, 4996, 32)          0         \n","_________________________________________________________________\n","conv1d_2 (Conv1D)            (None, 4994, 32)          3104      \n","_________________________________________________________________\n","batch_normalization_2 (Batch (None, 4994, 32)          128       \n","_________________________________________________________________\n","activation_2 (Activation)    (None, 4994, 32)          0         \n","_________________________________________________________________\n","conv1d_3 (Conv1D)            (None, 4992, 32)          3104      \n","_________________________________________________________________\n","batch_normalization_3 (Batch (None, 4992, 32)          128       \n","_________________________________________________________________\n","activation_3 (Activation)    (None, 4992, 32)          0         \n","_________________________________________________________________\n","dropout_1 (Dropout)          (None, 4992, 32)          0         \n","_________________________________________________________________\n","conv1d_4 (Conv1D)            (None, 4990, 32)          3104      \n","_________________________________________________________________\n","batch_normalization_4 (Batch (None, 4990, 32)          128       \n","_________________________________________________________________\n","activation_4 (Activation)    (None, 4990, 32)          0         \n","_________________________________________________________________\n","conv1d_5 (Conv1D)            (None, 4988, 32)          3104      \n","_________________________________________________________________\n","batch_normalization_5 (Batch (None, 4988, 32)          128       \n","_________________________________________________________________\n","activation_5 (Activation)    (None, 4988, 32)          0         \n","_________________________________________________________________\n","dropout_2 (Dropout)          (None, 4988, 32)          0         \n","_________________________________________________________________\n","conv1d_6 (Conv1D)            (None, 4986, 32)          3104      \n","_________________________________________________________________\n","flatten (Flatten)            (None, 159552)            0         \n","_________________________________________________________________\n","batch_normalization_6 (Batch (None, 159552)            638208    \n","_________________________________________________________________\n","dense_1 (Dense)              (None, 2)                 319106    \n","_________________________________________________________________\n","dense_2 (Dense)              (None, 2)                 6         \n","_________________________________________________________________\n","dense_3_mitbih (Dense)       (None, 2)                 6         \n","=================================================================\n","Total params: 975,214\n","Trainable params: 655,758\n","Non-trainable params: 319,456\n","_________________________________________________________________\n","Epoch 1/1000\n","3308/3308 [==============================] - ETA: 0s - loss: 0.5213 - acc: 0.7910\n","Epoch 00001: val_loss improved from inf to 0.52833, s
…
")#_Sthefanie\n","# modelo_carregado = load_model(path_modelo+\"model_Multi_MIT.h5\")\n","\n","model_loaded_baseline_1.summary()"],"execution_count":null,"outputs":[{"output_type":"stream","text":["Model: \"model_1\"\n","_________________________________________________________________\n","Layer (type)                 Output Shape              Param #   \n","=================================================================\n","input_1 (InputLayer)         [(None, 187, 1)]          0         \n","_________________________________________________________________\n","conv1d_1 (Conv1D)            (None, 183, 16)           96        \n","_________________________________________________________________\n","conv1d_2 (Conv1D)            (None, 179, 16)           1296      \n","_________________________________________________________________\n","max_pooling1d_1 (MaxPooling1 (None, 89, 16)            0         \n","_________________________________________________________________\n","dropout_1 (Dropout)          (None, 89, 16)            0         \n","_________________________________________________________________\n","conv1d_3 (Conv1D)            (None, 87, 32)            1568      \n","_________________________________________________________________\n","conv1d_4 (Conv1D)            (None, 85, 32)            3104      \n","_________________________________________________________________\n","max_pooling1d_2 (MaxPooling1 (None, 42, 32)            0         \n","_________________________________________________________________\n","dropout_2 (Dropout)          (None, 42, 32)            0         \n","_________________________________________________________________\n","conv1d_5 (Conv1D)            (None, 40, 32)            3104      \n","_________________________________________________________________\n","conv1d_6 (Conv1D)            (None, 38, 32)            3104      \n","_________________________________________________________________\n","max_pooling1d_3 (MaxPooling1 (None, 19, 32)            0         \n","_________________________________________________________________\n","dropout_3 (Dropout)          (None, 19, 32)            0         \n","_________________________________________________________________\n","conv1d_7 (Conv1D)            (None, 17, 256)           24832     \n","_________________________________________________________________\n","conv1d_8 (Conv1D)            (None, 15, 256)           196864    \n","_________________________________________________________________\n","global_max_pooling1d_1 (Glob (None, 256)               0         \n","_________________________________________________________________\n","dropout_4 (Dropout)          (None, 256)               0         \n","_________________________________________________________________\n","dense_1 (Dense)              (None, 64)                16448     \n","_________________________________________________________________\n","dense_2 (Dense)              (None, 64)                4160      \n","_________________________________________________________________\n","dense_3_mitbih (Dense)       (None, 5)                 325       \n","=================================================================\n","Total params: 254,901\n","Trainable params: 254,901\n","Non-trainable params: 0\n","_________________________________________________________________\n"],"name":"stdout"}]},{"cell_type":"code","metadata":{"id":"4GvIAmaHgP4U","colab":{"base_uri":"https://localhost:8080/","height":34},"executionInfo":{"status":"ok","ti
…
ptb_dammi, epochs=1000, verbose=2, callbacks=callbacks_list, validation_split=0.1)\n","model.load_weights(path_modelo+file_path)"],"execution_count":null,"outputs":[{"output_type":"stream","text":["Model: \"model_2\"\n","_________________________________________________________________\n","Layer (type)                 Output Shape              Param #   \n","=================================================================\n","input_3 (InputLayer)         [(None, 187, 1)]          0         \n","_________________________________________________________________\n","conv1d_16 (Conv1D)           (None, 183, 16)           96        \n","_________________________________________________________________\n","conv1d_17 (Conv1D)           (None, 179, 16)           1296      \n","_________________________________________________________________\n","max_pooling1d_6 (MaxPooling1 (None, 89, 16)            0         \n","_________________________________________________________________\n","dropout_8 (Dropout)          (None, 89, 16)            0         \n","_________________________________________________________________\n","conv1d_18 (Conv1D)           (None, 87, 32)            1568      \n","_________________________________________________________________\n","conv1d_19 (Conv1D)           (None, 85, 32)            3104      \n","_________________________________________________________________\n","max_pooling1d_7 (MaxPooling1 (None, 42, 32)            0         \n","_________________________________________________________________\n","dropout_9 (Dropout)          (None, 42, 32)            0         \n","_________________________________________________________________\n","conv1d_20 (Conv1D)           (None, 40, 32)            3104      \n","_________________________________________________________________\n","conv1d_21 (Conv1D)           (None, 38, 32)            3104      \n","_________________________________________________________________\n","max_pooling1d_8 (MaxPooling1 (None, 19, 32)            0         \n","_________________________________________________________________\n","dropout_10 (Dropout)         (None, 19, 32)            0         \n","_________________________________________________________________\n","conv1d_22 (Conv1D)           (None, 17, 256)           24832     \n","_________________________________________________________________\n","conv1d_23 (Conv1D)           (None, 15, 256)           196864    \n","_________________________________________________________________\n","global_max_pooling1d_2 (Glob (None, 256)               0         \n","_________________________________________________________________\n","dropout_11 (Dropout)         (None, 256)               0         \n","_________________________________________________________________\n","dense_1 (Dense)              (None, 64)                16448     \n","_________________________________________________________________\n","dense_2 (Dense)              (None, 64)                4160      \n","_________________________________________________________________\n","dense_3_ptbdb (Dense)        (None, 2)                 130       \n","=================================================================\n","Total params: 254,706\n","Trainable params: 254,706\n","Non-trainable params: 0\n","_________________________________________________________________\n","Epoch 1/1000\n","\n","Epoch 00001: val_acc improved from -inf to 0.83691, saving model to gdrive/My Drive/PROJETO_2021/Codes/Models/baseline_cnn_ptbdb_transfer_full
…
he_baseline.fit(X_mit, Y_mit_dammi, batch_size = 16, epochs = 1000, validation_split=0.1, callbacks = callbacks_list, verbose = 1)"],"execution_count":null,"outputs":[{"output_type":"stream","text":["Model: \"model\"\n","_________________________________________________________________\n","Layer (type)                 Output Shape              Param #   \n","=================================================================\n","input_1 (InputLayer)         [(None, 187, 1)]          0         \n","_________________________________________________________________\n","conv1d (Conv1D)              (None, 183, 16)           96        \n","_________________________________________________________________\n","max_pooling1d (MaxPooling1D) (None, 91, 16)            0         \n","_________________________________________________________________\n","batch_normalization (BatchNo (None, 91, 16)            64        \n","_________________________________________________________________\n","activation (Activation)      (None, 91, 16)            0         \n","_________________________________________________________________\n","conv1d_1 (Conv1D)            (None, 89, 32)            1568      \n","_________________________________________________________________\n","batch_normalization_1 (Batch (None, 89, 32)            128       \n","_________________________________________________________________\n","activation_1 (Activation)    (None, 89, 32)            0         \n","_________________________________________________________________\n","dropout (Dropout)            (None, 89, 32)            0         \n","_________________________________________________________________\n","conv1d_2 (Conv1D)            (None, 87, 32)            3104      \n","_________________________________________________________________\n","batch_normalization_2 (Batch (None, 87, 32)            128       \n","_________________________________________________________________\n","activation_2 (Activation)    (None, 87, 32)            0         \n","_________________________________________________________________\n","conv1d_3 (Conv1D)            (None, 85, 32)            3104      \n","_________________________________________________________________\n","batch_normalization_3 (Batch (None, 85, 32)            128       \n","_________________________________________________________________\n","activation_3 (Activation)    (None, 85, 32)            0         \n","_________________________________________________________________\n","dropout_1 (Dropout)          (None, 85, 32)            0         \n","_________________________________________________________________\n","conv1d_4 (Conv1D)            (None, 83, 32)            3104      \n","_________________________________________________________________\n","batch_normalization_4 (Batch (None, 83, 32)            128       \n","_________________________________________________________________\n","activation_4 (Activation)    (None, 83, 32)            0         \n","_________________________________________________________________\n","conv1d_5 (Conv1D)            (None, 81, 32)            3104      \n","_________________________________________________________________\n","batch_normalization_5 (Batch (None, 81, 32)            128       \n","_________________________________________________________________\n","activation_5 (Activation)    (None, 81, 32)            0         \n","_________________________________________________________________\n","dropout_2 (Dropout)          (None, 81, 32)            0         \n","_________________________________________________________________\n","conv1d_6 (Conv1D)            (None, 79, 32)            3104      \n","_________________________________________________________________\n","flatten (Flatten)            (None, 2528)              0         \n","_________________________________________________________________\n","batch_normalization_6 (Batch (None, 2528)              10112     \n","_________________________________________________________________\n","dense_1 (Dense)              (None, 5)                 12645     \n","_________________________________________________________________\n","dense_2 (Dense)              (None, 5)                 30        \n","_________________________________________________________________\n","dense_3_mitbih (Dense)       (None, 5)                 30        \n","=================================================================\n","Total params: 40,705\n","Trainable params: 35,297\n","Non-trainable params: 5,408\n","_________________________________________________________________\n","Epoch 1/1000\n","4925/4925 [==============================] - ETA: 0s - loss: 0.2822 - acc: 0.9224\n","Epoch 00001: val_loss improved from inf to 0.21336, saving
…
a2\n","# modelo_carregado = load_model(path_modelo+\"model_Multi_MIT.h5\")\n","\n","model_MultiMIT_Sthefanie_Baseline.summary()"],"execution_count":null,"outputs":[{"output_type":"stream","text":["Model: \"model_29\"\n","_________________________________________________________________\n","Layer (type)                 Output Shape              Param #   \n","=================================================================\n","input_35 (InputLayer)        [(None, 187, 1)]          0         \n","_________________________________________________________________\n","conv1d_239 (Conv1D)          (None, 185, 32)           128       \n","_________________________________________________________________\n","max_pooling1d_43 (MaxPooling (None, 92, 32)            0         \n","_________________________________________________________________\n","batch_normalization_186 (Bat (None, 92, 32)            128       \n","_________________________________________________________________\n","activation_156 (Activation)  (None, 92, 32)            0         \n","_________________________________________________________________\n","conv1d_240 (Conv1D)          (None, 88, 128)           20608     \n","_________________________________________________________________\n","batch_normalization_187 (Bat (None, 88, 128)           512       \n","_________________________________________________________________\n","activation_157 (Activation)  (None, 88, 128)           0         \n","_________________________________________________________________\n","dropout_97 (Dropout)         (None, 88, 128)           0         \n","_________________________________________________________________\n","conv1d_241 (Conv1D)          (None, 84, 128)           82048     \n","_________________________________________________________________\n","batch_normalization_188 (Bat (None, 84, 128)           512       \n","_________________________________________________________________\n","activation_158 (Activation)  (None, 84, 128)           0         \n","_________________________________________________________________\n","conv1d_242 (Conv1D)          (None, 80, 128)           82048     \n","_________________________________________________________________\n","batch_normalization_189 (Bat (None, 80, 128)           512       \n","_________________________________________________________________\n","activation_159 (Activation)  (None, 80, 128)           0         \n","_________________________________________________________________\n","dropout_98 (Dropout)         (None, 80, 128)           0         \n","_________________________________________________________________\n","conv1d_243 (Conv1D)          (None, 76, 128)           82048     \n","_________________________________________________________________\n","batch_normalization_190 (Bat (None, 76, 128)           512       \n","_________________________________________________________________\n","activation_160 (Activation)  (None, 76, 128)           0         \n","_________________________________________________________________\n","conv1d_244 (Conv1D)          (None, 72, 128)           82048     \n","_________________________________________________________________\n","batch_normalization_191 (Bat (None, 72, 128)           512       \n","_________________________________________________________________\n","activation_161 (Activation)  (None, 72, 128)           0         \n","_________________________________________________________________\n","dropout_99 (Dropout)         (None, 72, 128)           0         \n","_________________________________________________________________\n","conv1d_245 (Conv1D)          (None, 68, 128)           82048     \n","_________________________________________________________________\n","flatten_29 (Flatten)         (None, 8704)              0         \n","_________________________________________________________________\n","batch_normalization_192 (Bat (None, 8704)              34816     \n","_________________________________________________________________\n","dense_21 (Dense)             (None, 5)                 43525     \n","_________________________________________________________________\n","dense_22 (Dense)             (None, 5)                 30        \n","_________________________________________________________________\n","dense_23 (Dense)             (None, 5)                 30        \n","=================================================================\n","Total params: 512,065\n","Trainable params: 493,313\n","Non-trainable params: 18,752\n","_________________________________________________________________\n"],"name":"stdout"}]},{"cell_type":"code","metadata":{"id":"QTFL7KfS2Pm1","colab":{"base_uri":"https://localhost:8080/","height":34},"executionInfo":{"status":"o
…
_baseline.fit(X_ptb, Y_ptb_dammi, batch_size = 16, epochs = 1000, validation_split=0.1, callbacks = callbacks_list, verbose = 1)"],"execution_count":null,"outputs":[{"output_type":"stream","text":["Model: \"model_2\"\n","_________________________________________________________________\n","Layer (type)                 Output Shape              Param #   \n","=================================================================\n","input_3 (InputLayer)         [(None, 187, 1)]          0         \n","_________________________________________________________________\n","conv1d_14 (Conv1D)           (None, 183, 16)           96        \n","_________________________________________________________________\n","max_pooling1d_2 (MaxPooling1 (None, 91, 16)            0         \n","_________________________________________________________________\n","batch_normalization_14 (Batc (None, 91, 16)            64        \n","_________________________________________________________________\n","activation_12 (Activation)   (None, 91, 16)            0         \n","_________________________________________________________________\n","conv1d_15 (Conv1D)           (None, 89, 32)            1568      \n","_________________________________________________________________\n","batch_normalization_15 (Batc (None, 89, 32)            128       \n","_________________________________________________________________\n","activation_13 (Activation)   (None, 89, 32)            0         \n","_________________________________________________________________\n","dropout_6 (Dropout)          (None, 89, 32)            0         \n","_________________________________________________________________\n","conv1d_16 (Conv1D)           (None, 87, 32)            3104      \n","_________________________________________________________________\n","batch_normalization_16 (Batc (None, 87, 32)            128       \n","_________________________________________________________________\n","activation_14 (Activation)   (None, 87, 32)            0         \n","_________________________________________________________________\n","conv1d_17 (Conv1D)           (None, 85, 32)            3104      \n","_________________________________________________________________\n","batch_normalization_17 (Batc (None, 85, 32)            128       \n","_________________________________________________________________\n","activation_15 (Activation)   (None, 85, 32)            0         \n","_________________________________________________________________\n","dropout_7 (Dropout)          (None, 85, 32)            0         \n","_________________________________________________________________\n","conv1d_18 (Conv1D)           (None, 83, 32)            3104      \n","_________________________________________________________________\n","batch_normalization_18 (Batc (None, 83, 32)            128       \n","_________________________________________________________________\n","activation_16 (Activation)   (None, 83, 32)            0         \n","_________________________________________________________________\n","conv1d_19 (Conv1D)           (None, 81, 32)            3104      \n","_________________________________________________________________\n","batch_normalization_19 (Batc (None, 81, 32)            128       \n","_________________________________________________________________\n","activation_17 (Activation)   (None, 81, 32)            0         \n","_________________________________________________________________\n","dropout_8 (Dropout)          (None, 81, 32)            0         \n","_________________________________________________________________\n","conv1d_20 (Conv1D)           (None, 79, 32)            3104      \n","_________________________________________________________________\n","flatten_2 (Flatten)          (None, 2528)              0         \n","_________________________________________________________________\n","batch_normalization_20 (Batc (None, 2528)              10112     \n","_________________________________________________________________\n","dense_1 (Dense)              (None, 2)                 5058      \n","_________________________________________________________________\n","dense_2 (Dense)              (None, 2)                 6         \n","_________________________________________________________________\n","dense_3_mitbih (Dense)       (None, 2)                 6         \n","=================================================================\n","Total params: 33,070\n","Trainable params: 27,662\n","Non-trainable params: 5,408\n","_________________________________________________________________\n","Epoch 1/1000\n","649/655 [============================>.] - ETA: 0s - loss: 0.4387 - acc: 0.7781\n","Epoch 00001: val_loss improved from inf to 0.43545, saving 
…
0.1, \n","#           callbacks = [checkpoint], \n","#           verbose = 1)\n","model.load_weights(path_modelo+file_path)"],"execution_count":null,"outputs":[{"output_type":"stream","text":["Model: \"functional_9\"\n","_________________________________________________________________\n","Layer (type)                 Output Shape              Param #   \n","=================================================================\n","input_5 (InputLayer)         [(None, 3600, 1)]         0         \n","_________________________________________________________________\n","conv1d_30 (Conv1D)           (None, 3596, 16)          96        \n","_________________________________________________________________\n","conv1d_31 (Conv1D)           (None, 3592, 16)          1296      \n","_________________________________________________________________\n","max_pooling1d_8 (MaxPooling1 (None, 1796, 16)          0         \n","_________________________________________________________________\n","dropout_14 (Dropout)         (None, 1796, 16)          0         \n","_________________________________________________________________\n","conv1d_32 (Conv1D)           (None, 1794, 32)          1568      \n","_________________________________________________________________\n","conv1d_33 (Conv1D)           (None, 1792, 32)          3104      \n","_________________________________________________________________\n","max_pooling1d_9 (MaxPooling1 (None, 896, 32)           0         \n","_________________________________________________________________\n","dropout_15 (Dropout)         (None, 896, 32)           0         \n","_________________________________________________________________\n","conv1d_34 (Conv1D)           (None, 894, 32)           3104      \n","_________________________________________________________________\n","conv1d_35 (Conv1D)           (None, 892, 32)           3104      \n","_________________________________________________________________\n","max_pooling1d_10 (MaxPooling (None, 446, 32)           0         \n","_________________________________________________________________\n","dropout_16 (Dropout)         (None, 446, 32)           0         \n","_________________________________________________________________\n","conv1d_36 (Conv1D)           (None, 444, 256)          24832     \n","_________________________________________________________________\n","conv1d_37 (Conv1D)           (None, 442, 256)          196864    \n","_________________________________________________________________\n","global_max_pooling1d_2 (Glob (None, 256)               0         \n","_________________________________________________________________\n","dropout_17 (Dropout)         (None, 256)               0         \n","_________________________________________________________________\n","dense_1 (Dense)              (None, 64)                16448     \n","_________________________________________________________________\n","dense_2 (Dense)              (None, 64)                4160      \n","_________________________________________________________________\n","dense_3_mitbih (Dense)       (None, 5)                 325       \n","=================================================================\n","Total params: 254,901\n","Trainable params: 254,901\n","Non-trainable params: 0\n","_________________________________________________________________\n","Epoch 1/1000\n","\n","Epoch 00001: val_acc improved from -inf to 0.85103, saving model to gdrive/My Drive/PROJETO_ARRITMIA/Codes/Oficial/Models/baseline_InterMIT_cl
…
rainm_PTB, epochs=1000, verbose=2, callbacks=callbacks_list, validation_split=0.1)\n","model.load_weights(path_modelo+file_path)"],"execution_count":null,"outputs":[{"output_type":"stream","text":["Model: \"model_1\"\n","_________________________________________________________________\n","Layer (type)                 Output Shape              Param #   \n","=================================================================\n","input_2 (InputLayer)         [(None, 10000, 1)]        0         \n","_________________________________________________________________\n","conv1d_7 (Conv1D)            (None, 9996, 16)          96        \n","_________________________________________________________________\n","conv1d_8 (Conv1D)            (None, 9992, 16)          1296      \n","_________________________________________________________________\n","max_pooling1d_1 (MaxPooling1 (None, 4996, 16)          0         \n","_________________________________________________________________\n","dropout_3 (Dropout)          (None, 4996, 16)          0         \n","_________________________________________________________________\n","conv1d_9 (Conv1D)            (None, 4994, 32)          1568      \n","_________________________________________________________________\n","conv1d_10 (Conv1D)           (None, 4992, 32)          3104      \n","_________________________________________________________________\n","max_pooling1d_2 (MaxPooling1 (None, 2496, 32)          0         \n","_________________________________________________________________\n","dropout_4 (Dropout)          (None, 2496, 32)          0         \n","_________________________________________________________________\n","conv1d_11 (Conv1D)           (None, 2494, 32)          3104      \n","_________________________________________________________________\n","conv1d_12 (Conv1D)           (None, 2492, 32)          3104      \n","_________________________________________________________________\n","max_pooling1d_3 (MaxPooling1 (None, 1246, 32)          0         \n","_________________________________________________________________\n","dropout_5 (Dropout)          (None, 1246, 32)          0         \n","_________________________________________________________________\n","conv1d_13 (Conv1D)           (None, 1244, 256)         24832     \n","_________________________________________________________________\n","conv1d_14 (Conv1D)           (None, 1242, 256)         196864    \n","_________________________________________________________________\n","global_max_pooling1d (Global (None, 256)               0         \n","_________________________________________________________________\n","dropout_6 (Dropout)          (None, 256)               0         \n","_________________________________________________________________\n","dense_1 (Dense)              (None, 64)                16448     \n","_________________________________________________________________\n","dense_2 (Dense)              (None, 64)                4160      \n","_________________________________________________________________\n","dense_3_mitbih (Dense)       (None, 10)                650       \n","=================================================================\n","Total params: 255,226\n","Trainable params: 255,226\n","Non-trainable params: 0\n","_________________________________________________________________\n","Epoch 1/1000\n","\n","Epoch 00001: val_acc improved from -inf to 0.75616, saving model to gdrive/My Drive/PROJETO_2021/Codes/Models/baseline_10_classes4.h5\n","1268
…
rainm_PTB, epochs=1000, verbose=2, callbacks=callbacks_list, validation_split=0.1)\n","model.load_weights(path_modelo+file_path)"],"execution_count":null,"outputs":[{"output_type":"stream","text":["Model: \"model_2\"\n","_________________________________________________________________\n","Layer (type)                 Output Shape              Param #   \n","=================================================================\n","input_5 (InputLayer)         [(None, 10000, 1)]        0         \n","_________________________________________________________________\n","conv1d_16 (Conv1D)           (None, 9996, 16)          96        \n","_________________________________________________________________\n","conv1d_17 (Conv1D)           (None, 9992, 16)          1296      \n","_________________________________________________________________\n","max_pooling1d_6 (MaxPooling1 (None, 4996, 16)          0         \n","_________________________________________________________________\n","dropout_8 (Dropout)          (None, 4996, 16)          0         \n","_________________________________________________________________\n","conv1d_18 (Conv1D)           (None, 4994, 32)          1568      \n","_________________________________________________________________\n","conv1d_19 (Conv1D)           (None, 4992, 32)          3104      \n","_________________________________________________________________\n","max_pooling1d_7 (MaxPooling1 (None, 2496, 32)          0         \n","_________________________________________________________________\n","dropout_9 (Dropout)          (None, 2496, 32)          0         \n","_________________________________________________________________\n","conv1d_20 (Conv1D)           (None, 2494, 32)          3104      \n","_________________________________________________________________\n","conv1d_21 (Conv1D)           (None, 2492, 32)          3104      \n","_________________________________________________________________\n","max_pooling1d_8 (MaxPooling1 (None, 1246, 32)          0         \n","_________________________________________________________________\n","dropout_10 (Dropout)         (None, 1246, 32)          0         \n","_________________________________________________________________\n","conv1d_22 (Conv1D)           (None, 1244, 256)         24832     \n","_________________________________________________________________\n","conv1d_23 (Conv1D)           (None, 1242, 256)         196864    \n","_________________________________________________________________\n","global_max_pooling1d_2 (Glob (None, 256)               0         \n","_________________________________________________________________\n","dropout_11 (Dropout)         (None, 256)               0         \n","_________________________________________________________________\n","dense_1 (Dense)              (None, 64)                16448     \n","_________________________________________________________________\n","dense_2 (Dense)              (None, 64)                4160      \n","_________________________________________________________________\n","dense_3_ptbdb (Dense)        (None, 15)                975       \n","=================================================================\n","Total params: 255,551\n","Trainable params: 255,551\n","Non-trainable params: 0\n","_________________________________________________________________\n","Epoch 1/1000\n","\n","Epoch 00001: val_acc improved from -inf to 0.71400, saving model to gdrive/My Drive/PROJETO_2020/Codes/baseline_cnn_ptbdb_transfer_Multi.h5\n"
…
